uploads/MODELO_VAE.pth (torch, 842082 bytes, 10 tensors)

encoder_fc1.weight f4 [256, 400]
00000000: ec33 303c 8c26 593c 00b1 b1b9 0a59 b1bc
00000010: 2a82 c13c 7088 b9bc 5e33 a73c caa7 e03c
00000020: 2c20 16bc 54e0 263c c0cd fabb 0c38 443c
00000030: 5aca 963c 0bd9 2d3d 4cdc 2abc 29f8 393d
00000040: 4019 49bd a343 9bbc 3085 303b e42e 7c3c
00000050: 15fe 453d 4d13 2fbd 524b 31bd c30b 43bd
00000060: 00b9 853b d175 013d b0cd 3a3b 70bd 1dbd
00000070: 80b9 55bb 5513 30bd c8f0 3a3c 70d2 88bc
00000080: f329 213d 28bf 17bc 69a2 253d aad0 99bc
00000090: 40b6 d1bb 1340 d2bc a024 343b 4ed3 cd3c
000000a0: 7af8 11bd c003 c4bc 006f beb9 2863 2abc
000000b0: 6830 453c 3b72 3f3d b851 2cbd 2654 b43c
000000c0: d020 713b ba79 d03c 1881 58bc c790 463d
000000d0: 4165 273d 1dcd d0bc 82a0 3fbd 7d42 2bbd
000000e0: b955 223d 269a ca3c 7ebb ad3c 01fb 473d
000000f0: 3acf 8d3c 2a27 23bd e06e 0a3b 158d 223d
00000100: cb38 0a3d db0d 0a3d 4c41 4cbc 181e ddbb
00000110: a59f 283d 96fa 0dbd 4016 dbba 1298 1fbd
00000120: 184c f73b f8c6 16bd 0b18 0ebd ca7d fa3c
00000130: a686 a83c de85 ec3c 4030 2c3c 809d 643a
00000140: b432 6e3c 7c80 5b3c abce 21bd c0f6 c1bb
00000150: b32e ffbc bd15 1b3d 5b7c 3c3d b020 babc
00000160: d4ac 133c 46ba ac3c 4e17 ba3c d2ee d53c
00000170: 6dc3 a5bc 4728 4cbd 4402 86bc 3c11 92bc
00000180: 7803 17bc 1f34 1c3d ab43 34bd 389e 1dbd
00000190: 3db6 243d 8cf2 4bbc 00c6 dab8 401a 973b
000001a0: 0b84 39bd c6c8 05bd 6232 45bd a434 633c
000001b0: 1bf8 2c3d 808d fdbc 408d 9d3b ac2e 81bc
000001c0: b8a9 123c ec37 5f3c 4118 2e3d 6050 7c3b
000001d0: 36d1 13bd ca95 8a3c 0035 fc3b 72c8 2dbd
000001e0: 6450 00bd 5df2 03bd e341 c7bc c858 5abc
000001f0: c1e0 1c3d e052 bfbc 4d0e ddbc 807e c339
00000200: 46cc 09bd fd00 38bd 5fd8 0f3d e74f 3c3d
00000210: 7a38 bebc 7521 2cbd eaf3 d3bc 0018 fc37
00000220: d872 febb da3f f23c aeeb 08bd 10e7 c43b
00000230: 09b8 403d d223 4bbd 5f38 2c3d e84c 843b
00000240: 6231 f13c f967 243d a866 13bd b2e8 3ebd
00000250: a72c b3bc 1bb4 10bd d060 babc fa56 12bd
00000260: c867 36bc 1545 34bd 80a1 203a 16ff fc3c
00000270: e061 7f3b c025 bcbb 78d1 493c 27bc 34bd
00000280: 93e5 0ebd 2a7d 95bc 2ab1 ac3c 28f8 3ebd
00000290: 7f7f 093d 02a6 c93c 60ce 4d3b cdd7 abbc
000002a0: c061 9fbb f4c0 103c 60a6 30bb a437 83bc
000002b0: eb96 0a3d d3e3 31bd 949d 07bd d4db 2dbc
000002c0: 50a5 723b ec0f 02bd 3b09 2e3d 947b 7a3c
000002d0: c8df 1b3c 6899 f23b 91e0 083d 884c 64bc
000002e0: b22c d13c 34d1 433c 10ab d6bb 8a06 d4bc
000002f0: 600c f13a 7450 50bc 5a48 c8bc d22f 15bd
00000300: 50c8 e8bb 12c0 883c 75f2 15bd 90d9 20bd
00000310: 50b1 3abb b817 28bc 00b6 3cb9 907c bdbc
00000320: 8c75 83bc f9f0 0a3d daaa 8d3c a8b0 bb3b
00000330: f9c2 4c3d 42fa 43bd 5fee 423d 2093 59bb
00000340: 7590 1bbd 5170 043d d2ec 26bd 4788 333d
00000350: 14a6 87bc 439a 9cbc 33a9 3dbd 7a74 3cbd
00000360: edc9 333d 3a85 8ebc d012 43bd 08cb 66bc
00000370: 485d 35bc 5de0 38bd 74d6 5e3c 7a35 8dbc
00000380: 59b9 1c3d 798d 3e3d 80e9 36bc dd6a afbc
00000390: 3ed6 ca3c c067 943b 5028 be3b f797 bebc
000003a0: b8ed 52bc 3e7a 0fbd 888d 7fbc d8b1 6abc
000003b0: c127 293d 40dc e23a 111d 1c3d a0b2 e1ba
000003c0: 07b7 2d3d 00a0 7b39 92da f33c 62c4 ad3c
000003d0: 0ba4 0f3d 8352 3b3d ea81 fa3c ac46 05bc
000003e0: e82c 72bc 20da cbbc f1c7 093d 10f4 40bd
000003f0: d3aa c6bc 1af1 03bd 541e 28bc c240 f13c
0.010754567 0.013253819 -0.00033891946 -0.021648902 0.023621637 -0.022648066 0.020410236 0.027423758
-0.009162944 0.01018532 -0.007653922 0.011976253 0.018407036 0.042443316 -0.010428499 0.04540268
-0.049096346 -0.01895315 0.0026934855 0.015392039 0.048338015 -0.042743016 -0.04328472 -0.04761864
0.0040808916 0.0316065 0.0028503947 -0.03851074 -0.0032611787 -0.042987186 0.011409946 -0.016701907
0.039346647 -0.009261884 0.04043809 -0.018776257 -0.0063998997 -0.025665319 0.002748765 0.025125172
-0.035637356 -0.02392757 -0.00036322325 -0.010399617 0.012035467 0.046739798 -0.04207012 0.022012781
0.003679324 0.025448669 -0.013214372 0.048477914 0.040868048 -0.02548843 -0.04678393 -0.041811455
0.039632533 0.024731707 0.021207567 0.04882336 0.017310727 -0.03983227 0.0021123216 0.039685328
0.03374557 0.03370462 -0.01246674 -0.006747972 0.041167874 -0.034662805 -0.0016715005 -0.038963385
0.007546913 -0.036810845 -0.034690898 0.030577559 0.020572018 0.028872427 0.010509551 0.0008720979
0.014538456 0.013397332 -0.039503735 -0.0059193075 -0.031150198 0.037862528 0.046017032 -0.022720665
0.009013373 0.021084916 0.02271619 0.026114855 -0.020234788 -0.0498431 -0.016358502 -0.017830484
-0.009217136 0.038135644 -0.044009846 -0.038480967 0.04021286 -0.012447964 -0.000104319304 0.0046112835
-0.04529194 -0.032662176 -0.048143752 0.013867531 0.0422288 -0.030951262 0.004808098 -0.015769325
0.008951597 0.013624173 0.0425036 0.0038500056 -0.03608819 0.016917128 0.007696748 -0.042427488
-0.031326666 -0.032213558 -0.02432341 -0.013326831 0.03830028 -0.023354948 -0.026984358 0.00037287548
-0.033642076 -0.044922817 0.035118457 0.04597464 -0.02322029 -0.042024095 -0.025873143 3.0051917e-05
-0.0077651553 0.029571462 -0.033427887 0.00600899 0.04705051 -0.049594708 0.042045947 0.0040374883
0.029442493 0.04013822 -0.035986573 -0.046608634 -0.021871878 -0.035328012 -0.022751242 -0.03572748
-0.011133142 -0.044011194 0.0006127581 0.030883353 0.003896825 -0.005741805 0.012318008 -0.04412475
-0.034886908 -0.01824816 0.021080572 -0.04662338 0.033568855 0.024615292 0.0031403527 -0.020976925
-0.0048639476 0.008835066 -0.0026954636 -0.016017742 0.033835333 -0.04343016 -0.033109263 -0.010611493
0.0037024803 -0.031753466 0.04248927 0.015288252 0.009513803 0.0074035414 0.03341729 -0.013934262
0.025534008 0.011951733 -0.006551154 -0.025882024 0.0018390529 -0.012714494 -0.024448562 -0.036422558
-0.0071039572 0.016693149 -0.03660818 -0.039269984 -0.0028487034 -0.010259561 -0.00017996877 -0.023130685
-0.016047262 0.033921216 0.017293382 0.005727846 0.049990628 -0.047846086 0.04759061 -0.0033199266
-0.03797956 0.032333676 -0.040753193 0.043831136 -0.016558684 -0.019116526 -0.04630394 -0.04600952
0.043893743 -0.017397512 -0.047625363 -0.014086492 -0.011069603 -0.045135844 0.013600934 -0.017237414
0.0382627 0.046521638 -0.011164069 -0.021413261 0.024760362 0.0045289695 0.0058031455 -0.023265822
-0.012874059 -0.03502869 -0.0155977085 -0.014324628 0.041297678 0.0017308071 0.038113657 -0.0017219372
0.042410877 0.0002399683 0.029767308 0.021211807 0.035068553 0.045732986 0.030579526 -0.008134525
-0.014781214 -0.024884284 0.033637945 -0.047107756 -0.024251377 -0.032212354 -0.010261137 0.029449824

encoder_fc1.bias f4 [256]
00000000: e3d3 c2bc 6422 89bc f3d6 2dbd bdb9 b6bd
00000010: 5dc9 483d 28f2 a9bd e3eb adbd 3de2 0cbd
00000020: 3ade 95bd 9491 e0bd bf89 0b3c 2c70 06bd
00000030: ab8d 68bc 00d2 1e3b eed3 adbd a4c8 1dbd
00000040: 7747 c6bd 54ce 99bc 5356 50bd 3504 85bd
00000050: 4a1e d7bc 3dee b6bd 4b9f 8cbd 47e7 64bd
00000060: f035 5dbd 98d2 41bd 6301 afbd dde5 40bd
00000070: a6a3 dc3c 7566 a2bc 6926 9fbd 5b75 6cbd
00000080: 4897 73bc f3ac b4bc a300 9fbd 1615 bebc
00000090: fba3 78bd 824e c73c 1768 fcbb 7e4e 293c
000000a0: d2e0 dfbd e442 b9bc 9082 acbd 9d7f 1fbc
000000b0: 3e33 6abc 2afd d13c 9175 d8bd 00e9 e2b9
000000c0: 1812 eb3b c914 c9bd bea0 833c 69a1 b7bd
000000d0: d2b8 97bd 80fc 80bd 4422 82bc b683 22bd
000000e0: bcea c8bd 8f3c 143d 98d2 93bd d354 84bc
000000f0: 34b8 f13c a9bc c3bd 86de d0bd eecc bc3c
00000100: c238 b8bc 712d 123d fc8e 88bd ae4e a3bc
00000110: c20e a4bd cb9d 97bd ef2f cebd cae5 81bd
00000120: c7d4 6fbd ce5e c6bd 9da0 93bd 071d 59bd
00000130: a9b8 cabc d855 2d3c 934a 82bd 7cfe 13bd
00000140: b37f e5bc 6864 2bbd 8e65 adbd 847c b9bd
00000150: 103f 88bd 9dc9 e5bc a821 1dbd ce2b a3bd
00000160: 2969 39bd 8f1e 8dbd 51bc 023d eaa7 9cbd
00000170: 7119 9cbd f22b 85bc 7905 3c3d 2ad4 ebbc
00000180: 8104 b6bc 0e50 48bd 9c8a 79bd 690e 51bd
00000190: 8883 43bd 8cf9 30bc 8cf7 02bd 2e31 5fbd
000001a0: 1cd2 4dbd 4371 81bd 0020 85bd 4e1b 0ebd
000001b0: 2584 acbc b73c 41bd fa0a 2abd b24d 933c
000001c0: e338 9cbc 2d66 03bd c864 7ebc 4910 12bc
000001d0: 3a3f f83c ff12 c2bc 4577 afbc 202a b0bd
000001e0: 8342 abbc da47 92bd ecb9 4c3c 5007 e1bb
000001f0: 6450 4e3c 5d0e 6dbd 0ae7 cebc 839d cfbd
00000200: 40b2 9dbd e9ff 39bd 05f9 2a3d cc0f 95bc
00000210: c38c 8cbd b0cb debc 729b 3ebc 2092 cdbc
00000220: af19 833c 4bcb 07bd 0767 09bd 27c7 5fbd
00000230: 87b5 cfbc c106 52bd dadc 433c 0b6b bcbd
00000240: e858 1dbd 5994 b3bd 7bf0 b6bd 62fd babd
00000250: 6fa3 a5bd 2bbb 71bd e49e 02bd 13ec a9bc
00000260: 9438 3bbd f13c 76bd 5477 06bd e2a0 e73c
00000270: 32fd 75bc 39b2 b3bd 9a14 4bbd ba63 59bd
00000280: e2e7 8a3c 672b 42bd 5256 9d3c 895a d2bd
00000290: 846b 7fbd 3a28 3abd 5619 30bd 4c5f b1bd
000002a0: 0e5a d7bd 0108 3a3d 3378 3b3d e551 ccbd
000002b0: edf3 b9bc 64c1 333e 16ec b1bc f970 2ebd
000002c0: 512f 85bd 53c1 4bbd 30c3 cbbc 935c fabc
000002d0: c217 d93c de41 cabd 33e1 80bd 39bb d6bd
000002e0: 98da 17bd 6733 4cbc edf0 d8bd f06e c2bc
000002f0: 295b cdbc e104 8bbd 3ef4 27bd 5af4 a9bd
00000300: bd04 1a3d 0a4a 9ebd 42cb 39bd 6bec a2bd
00000310: b063 a4bc f43a f9bc 4443 30bd fae2 8abd
00000320: c7a8 4abd 87ce d6bc b3d8 c1bd a33d a5bd
00000330: 7dae 33bd 8f47 c2bd 89e7 ddbd 532e 40bd
00000340: a4d7 563c 2909 dabd aa39 d9bc 7516 c4bd
00000350: 31b7 babd 4dff 7abb c04c 72bc f03b a4bd
00000360: 6cd1 3abd bc38 90bd 48c8 a8bd b633 8fbd
00000370: 6b60 babc b3de 273d 7846 c2bd deb0 49bd
00000380: d208 69bd ffad 77bc f85b 04bd 7cc9 20bd
00000390: 42db fabc ea03 acbd 7d8b 17bd 966b 1e3c
000003a0: 7283 ee3c b3ac b4bc 7cef 05bd f46f c5bd
000003b0: cec8 ab3c 8ee4 c8bc 39b3 0ebd 60d3 84bc
000003c0: 0b9f babd bd63 873c bb02 adbd 9631 adbc
000003d0: 000f df3a f193 0c3d d7ea 95bd d756 6cbd
000003e0: d53a dbbd 4dd4 3abd e0f1 86bd 4e3a 05be
000003f0: aeae 2ebd 00c4 a9b8 d8a0 26bc ffc1 0abd
-0.023782676 -0.016740032 -0.04244132 -0.089221455 0.04902016 -0.08298141 -0.084922574 -0.034395445
-0.07317777 -0.10965267 0.008516728 -0.03282182 -0.0141939325 0.0024234056 -0.08487688 -0.038521424
-0.096815996 -0.018775143 -0.050863575 -0.06494943 -0.02625956 -0.08932159 -0.0686632 -0.055884626
-0.054006517 -0.04731998 -0.08545186 -0.047094215 0.026933502 -0.019824246 -0.07770998 -0.057729106
-0.014867611 -0.022055125 -0.07763793 -0.023203414 -0.06070326 0.024329428 -0.007702838 0.010333655
-0.10931553 -0.022614904 -0.0842334 -0.009735015 -0.014294444 0.025633413 -0.10569299 -0.00043279678
0.007173788 -0.098184176 0.016067859 -0.089663334 -0.074082986 -0.062981606 -0.01588548 -0.03967639
-0.09810397 0.036190566 -0.07217902 -0.016153729 0.02950678 -0.095574684 -0.10198693 0.023046937
-0.022488002 0.035687868 -0.06667897 -0.019934978 -0.08010627 -0.074031435 -0.10067736 -0.06342657
-0.05855253 -0.09686051 -0.07208369 -0.0530062 -0.024746256 0.010579549 -0.0636188 -0.036131367
-0.028014993 -0.0418438 -0.08466636 -0.090569526 -0.06652653 -0.028050238 -0.038362175 -0.079673395
-0.045266304 -0.06890594 0.031917874 -0.076492146 -0.0762204 -0.016256306 0.045903657 -0.028787691
-0.022218945 -0.04890447 -0.060923204 -0.051039133 -0.04773286 -0.010801684 -0.03197436 -0.05449026
-0.050249204 -0.06320431 -0.06500244 -0.03469401 -0.021059105 -0.047177043 -0.041514374 0.017981384
-0.019070094 -0.032079864 -0.015526958 -0.0089150155 0.030303586 -0.023690699 -0.021419177 -0.08601785
-0.020905739 -0.07142611 0.012495499 -0.006867327 0.012592409 -0.057875026 -0.025256652 -0.10137465
-0.07700014 -0.04541007 0.04174139 -0.01819601 -0.06862786 -0.027196735 -0.011633741 -0.025094092
0.016003458 -0.03315286 -0.03354552 -0.054633286 -0.025355114 -0.051275972 0.011954511 -0.09200104
-0.038414866 -0.087685294 -0.08932587 -0.0913036 -0.08087813 -0.059016388 -0.03188981 -0.020742452
-0.045708254 -0.060116712 -0.032828644 0.028274957 -0.01501398 -0.08774228 -0.049580194 -0.053073622
0.016956273 -0.047404673 0.0192062 -0.102711745 -0.062358394 -0.04544852 -0.042992912 -0.086607546
-0.105152234 0.04541779 0.045768928 -0.09976558 -0.02269932 0.17554241 -0.02171902 -0.042588208
-0.065031655 -0.049744915 -0.024873346 -0.030561721 0.026500586 -0.098758444 -0.06292953 -0.10484929
-0.0370737 -0.012463427 -0.10592828 -0.02373454 -0.025067883 -0.0678804 -0.041004412 -0.082985595
0.037602175 -0.077289656 -0.045359857 -0.079552494 -0.020067066 -0.030423619 -0.0430329 -0.067815736
-0.049477365 -0.026221527 -0.0946516 -0.08068397 -0.043867577 -0.09486305 -0.108351775 -0.04691918
0.013112936 -0.106462784 -0.026516754 -0.09574596 -0.09116972 -0.0038299144 -0.014788806 -0.08019245
-0.045609877 -0.07042071 -0.082413256 -0.06992285 -0.022751054 0.040983867 -0.09486097 -0.04924094
-0.056893177 -0.0151171675 -0.03231427 -0.03925465 -0.030622128 -0.08399184 -0.03699826 0.009669205
0.029115412 -0.022055006 -0.032699093 -0.09640494 0.020969775 -0.024523046 -0.03483889 -0.016214073
-0.09112366 0.016527051 -0.084477864 -0.021141808 0.001701802 0.034320775 -0.07320183 -0.057700004
-0.10704581 -0.045612622 -0.06589103 -0.13010523 -0.042647056 -8.095056e-05 -0.010170184 -0.033876415

encoder_fc2_mean.weight f4 [5, 256]
00000000: f841 3fbd 6b35 bbbd f06e 2ebc 5212 e43a
00000010: bcfb e13c 7cf5 4abd 2407 2abc 9278 263d
00000020: 6fb8 723a 165a e23d c134 8cbc f8db 213d
00000030: 95e4 543d 768f 343d 8cb4 27bd 0f75 48bd
00000040: 7738 62bc 2cf7 40bd 85ba e9bd 7c73 7abc
00000050: 6f1d 543c 6e42 abbd 6228 2abc 145d 323d
00000060: 0591 4d3c e0e3 d7bb 3af9 953d 4009 59bd
00000070: c855 febc d21f bd3d 114e 3d3d 532f 263c
00000080: d4e6 8f3c a566 633d 1649 eebd affb aabd
00000090: 1f21 653c b01c f93b 82a5 8d3c 4bf7 633d
000000a0: 0240 613d d194 e9bc 3eb7 32bd 0d63 183d
000000b0: 291d 573d b0ae 3bbd 93ba 863d a414 5ebd
000000c0: e08f 413c db35 7a3d 6037 04bc ea61 0dbd
000000d0: 3c27 5dbd 510f a73d 9030 7abd 8336 063d
000000e0: 5dda e5bd d803 6b3c a267 f9bc 43eb e0bd
000000f0: a141 52bd 51be a5bd 49ae e7bc b07d b83b
00000100: 8b68 97bd 08b3 003d b256 563d 26de 7abd
00000110: 1f93 d43c fc40 92bd 9b91 82bc 5846 c5bd
00000120: dc8b d3bc ea41 80bc 43ae b1bd eede 54bc
00000130: 2801 acbd 7433 ebbc e593 263d b074 b33d
00000140: 945a b33c 984f 76bc 24ad 2d3c 2315 94bd
00000150: 11b5 9d3d a096 84bd 4d77 92bc 5143 bfbd
00000160: 5f8f 1d3a 27b5 d4bc 6cbf 5cbd d098 6abd
00000170: b92d c1bd 09e0 58bd 66c8 0b3d 0f63 94bd
00000180: 71a2 6abc 8451 663d 3a74 1d3d acf6 8abd
00000190: a01d 853d bce6 a1bc b688 7bbd 2623 0e3d
000001a0: 82e5 853d 4ba5 c1bc 29b7 543d 4871 74bd
000001b0: 1768 173b 58fb f5bc 7f0d 843c 7826 0a3d
000001c0: 00d8 7c3d ae78 35bd 3516 f6bb 8cec 413c
000001d0: 4482 ee3c c6a0 683d 69e2 3e3d af0f 80bc
000001e0: a63f 6b3a 4a53 8b3d 1078 debb b807 f03c
000001f0: d4c9 1d3d 2ed5 07bc bb8a 973d 9a48 84bd
00000200: f358 9dba e23a 1fbd f4da 5bbd be22 863d
00000210: c627 12bb c095 1c3b 8196 933d 5831 87bd
00000220: 1099 64bc f9aa 22bc c443 85bd 80af 263d
00000230: 2027 52bd 152f f43c 355d 4e3b 9733 27bb
00000240: 5726 8e3d e53f 4ebd 1885 dcbd 2b1b 8f3d
00000250: a063 d13d 27cf 403d e2bb 5e3d 4847 4a3d
00000260: 9eea 933d 484b 533d 7ec0 283d 5803 8f3c
00000270: 8efe 58bd 0e30 02bd 7284 383d 07fe 9dbd
00000280: 4c4b 4f3d 61b0 bb3a 5027 313d e42c f4bd
00000290: 7003 c7bd a9b7 33bc 9e2a fabc ca45 773d
000002a0: 6186 8dbd 9ca5 3d3d 8ca8 4e3d 5771 2d3a
000002b0: def8 b6bb 6608 efbb 8805 773c b6e0 543d
000002c0: 7912 4ebd 7237 883d c014 3a3d 7006 6bbd
000002d0: 80c9 e73b 1cb0 113d 6966 f03c e40b 5d3d
000002e0: f728 003d 1b8f bf3c 33a0 b8bc d607 c03c
000002f0: af74 193c e72c aa3d dd99 ecbb abec c6ba
00000300: d02d 4dbc e498 a9bd 2cc3 ad3c af41 a23c
00000310: 6bb3 80bd 692f c3bd bb55 e9bd 2763 c9bd
00000320: 65e4 45bc 9025 4a3c d7c9 a3bd 8fc5 91bc
00000330: b6bd d83d 7a12 0ebd 10de 183d f633 3abd
00000340: 00a7 32bc 1934 34bc 3c82 b73c d97d 203c
00000350: 5687 1dba 6889 913d 7019 5abd 6617 4dbd
00000360: 8563 b4bd b68d 793d 118e eabd b618 233d
00000370: 28ad c03d d473 b53c df21 2fbc 9922 05bd
00000380: a59d fbbc 6940 cfbc 756a 46bc 7730 af3d
00000390: 796e 1e3d 57d1 ca3c 8e77 3c3d f274 ac3d
000003a0: be74 54bd c08a ca3a 0da6 abbd 876c d63b
000003b0: b682 1fbd 9fdf 2f3b 9661 5f3d 38f6 923c
000003c0: 5eaf d8bb 7d3d 66bc 742f 82bd 066d a73b
000003d0: 6c54 33bd b0aa e93b b6ae febb 0496 223d
000003e0: 52ed a4bd 5057 03bc 0afd 70bc b774 8cbd
000003f0: 599e cbbd 6ca3 e33c d81d 5fbd 4244 66bd
-0.046693772 -0.09141048 -0.010646567 0.0017400479 0.027585857 -0.04955052 -0.010377679 0.04064233
0.000925905 0.11052339 -0.017114999 0.03951642 0.051975805 0.044082128 -0.040943667 -0.04893976
-0.013807408 -0.04711072 -0.11412529 -0.015286323 0.012946471 -0.0836228 -0.010385605 0.043545797
0.012546782 -0.006588444 0.07322927 -0.052987337 -0.031046763 0.09234585 0.046217028 0.010143119
0.017566122 0.05551781 -0.11635034 -0.08348786 0.013984947 0.007602297 0.017290834 0.05565576
0.054992683 -0.028513344 -0.043631785 0.037203837 0.052518044 -0.04582089 0.06578555 -0.054218903
0.011814088 0.061086517 -0.008069843 -0.034517206 -0.053992495 0.08157218 -0.06108147 0.03276683
-0.1122329 0.014344178 -0.030444924 -0.109823726 -0.05133212 -0.080929406 -0.028281348 0.0056302175
-0.07392987 0.031420738 0.052328773 -0.061247014 0.025949059 -0.07141301 -0.01593857 -0.09632558
-0.025823526 -0.01565643 -0.08675816 -0.012992604 -0.08398658 -0.028711058 0.040668387 0.08762491
0.021893777 -0.015033625 0.010600362 -0.07230594 0.07700551 -0.06474042 -0.017879153 -0.093390115
0.00060104387 -0.025965286 -0.05389349 -0.05727464 -0.09432549 -0.05294803 0.03412666 -0.072454564
-0.014320956 0.056230083 0.03844092 -0.0678533 0.06499791 -0.019763343 -0.061409675 0.03470149
0.06537916 -0.023638388 0.051932488 -0.059678346 0.0023102814 -0.030027077 0.016119717 0.033728093
0.06172943 -0.044304542 -0.0075099715 0.011836182 0.02911485 0.05679395 0.04660264 -0.015632479
0.0008974023 0.068029955 -0.006789215 0.029300556 0.038522556 -0.008290572 0.073995076 -0.0645916
-0.0012004658 -0.038874514 -0.053675607 0.06549595 -0.002230154 0.002389297 0.07206441 -0.066012084
-0.013952509 -0.009928458 -0.06507066 0.040694714 -0.051306844 0.029807607 0.0031488661 -0.0025512928
0.069409065 -0.050353903 -0.10767573 0.06987604 0.1022408 0.047072556 0.054378398 0.049384385
0.07222484 0.051585466 0.0411992 0.01745765 -0.052977137 -0.03178411 0.045048185 -0.077144675
0.050608918 0.0014319533 0.043250382 -0.11922625 -0.097174525 -0.010969081 -0.0305379 0.06036929
-0.06910396 0.046300516 0.050453708 0.0006616315 -0.0055838665 -0.0072947023 0.015077002 0.051972114
-0.050310586 0.066512 0.045429945 -0.057379186 0.007073581 0.03556834 0.029345708 0.053966418
0.031289067 0.023383668 -0.022537326 0.023441236 0.009366198 0.08309346 -0.0072204904 -0.0015176734
-0.01252313 -0.08281115 0.02121123 0.019806711 -0.06284221 -0.09530527 -0.11393305 -0.09833365
-0.012078379 0.012338057 -0.07997482 -0.017794399 0.105830595 -0.03468559 0.03732115 -0.04545971
-0.010904074 -0.010998749 0.022400968 0.009795629 -0.00060092413 0.07106286 -0.053246915 -0.050071143
-0.08808044 0.06092616 -0.11452878 0.039818488 0.09408027 0.022149958 -0.010689228 -0.032503698
-0.03071482 -0.025299268 -0.012110342 0.08554166 0.038679574 0.024758024 0.046012454 0.08420743
-0.051869147 0.0015452728 -0.08381281 0.006543699 -0.038943015 0.002683617 0.054536425 0.017939672
-0.0066127023 -0.014052746 -0.06356707 0.005109432 -0.043781683 0.0071309432 -0.007772292 0.039693847
-0.08053078 -0.008016422 -0.014708767 -0.06858199 -0.09942312 0.027787887 -0.05447182 -0.05621744

encoder_fc2_mean.bias f4 [5]
00000000: c74d 283d 2bd3 b9bc 9764 3f3b a98d 39bd
00000010: 95af 72be
0.0410898 -0.0226837 0.0029204243 -0.045301113 -0.23699792

encoder_fc2_logvar.weight f4 [5, 256]
00000000: 88bf 82bc a8cf 36bd 007d 2fba 871e 593d
00000010: 802c 0bbc 8507 19bc 00ac d33d b6e3 253d
00000020: 3739 88ba db60 973d 115d 1fbe 0018 f7ba
00000030: 74dc fc3d 601d bf3c db04 1bbb 0324 0cbd
00000040: b5ce bebc 2bff d4bd d274 90bc 2d13 bfbd
00000050: 6b2b 81bd 333e 91bd 943c c1b7 b958 403b
00000060: 5a97 323d 8ea2 033d 626f 33bd d029 0b3d
00000070: 3647 71bd 12a6 783c 821c 303d f3f4 a93c
00000080: a466 c83c d33b 823d 925f d9bd 4bf0 a8bd
00000090: 285e 273d 0838 2abd fec1 e0bd f376 233b
000000a0: eb1b 98bd 23b6 a1bd ddb5 99bd ad57 0b3d
000000b0: 5528 a63c 0cb6 d6bc ab9a cebd 484f 023c
000000c0: 7c12 03bd 4940 9cbd 3cbc b2bc 203c 51bb
000000d0: 144b adbc 8a73 453d 296f f4bc 2659 e13c
000000e0: 172f 1a3b 6469 03bd 0115 f4bd 5f4b 94bc
000000f0: 60f2 22bd 195a 03bd cb45 babd 9a0a 5dbd
00000100: 54d2 9abd b675 5cbd 7ff4 ad3d d0a4 9bbd
00000110: 03c5 0f3d e897 07bd 363a 00bd 1458 dabd
00000120: ef80 14bc 8067 383b 4523 2dbc 3dfd 4b3c
00000130: b3e9 9fbd 8025 b3bb 5662 8b3c adda 2a3d
00000140: 9c93 1a3d 8440 bf3c f775 863d 9cdf 73bc
00000150: 6c4a 573d b105 15bd 1b58 56bb dbe0 62bd
00000160: 95e0 7fbc 3e83 d4bd e281 12bd 1112 74bd
00000170: 4513 73bd e6e4 f4bd 68b1 0d3d 10d9 62bc
00000180: f6a9 c9bd ded9 373c 6f9d 6c3d 6ebd c1bd
00000190: 496e d63d 009e 753a 62d6 3bbd c1f3 d6bd
000001a0: d91e 4f3d adcd c2bd a81c 913d 1671 20bd
000001b0: ff3a cbbd e060 073b 8308 203d 46b5 573d
000001c0: 50c1 6b3d 183e 87bd 117a 623c 9bac 8a3d
000001d0: 345d 983c f2e4 893d 21d3 89bd 5a54 4abd
000001e0: 2be6 5fbd 1df6 0e3c 60b5 92bc 484c 1f3c
000001f0: 88a4 123c 723b efbc 3c82 9a3d 16bf efbc
00000200: 0396 873d eb09 60bc ac60 483d 84b6 233c
00000210: 463e e03d 4815 fb3c ba06 703d 821e 6abd
00000220: bfeb 653c 7f01 b5bc 3590 29bd 8182 4ebd
00000230: 94d8 96bd 80bd 1e3d 1a9d 4a3c 58a7 b23d
00000240: 6cff 683c d5ee e6bd c5ac 56bd 8759 3cbc
00000250: 16d5 b43d 6412 d43c 8696 55bd d213 71bd
00000260: fe12 f43c dd6d 9e3d 08e4 2ebd a827 373c
00000270: fee9 52bd da41 a3bd c8fb bb3c 9321 84bd
00000280: 3c54 fb3c 11d7 06bd 80e4 3b3b 0c5f 8abc
00000290: d8a9 0fbd b848 753c be2e 99bc 25a1 8d3d
000002a0: 8311 8fbd 7a18 363d 6010 91bc 1d18 4bbd
000002b0: ef67 14bd d49d 0e3c 5ee4 383d dfa7 c93d
000002c0: 27ce a6bb 4aca 60bd 4801 01bc 605a 1bbc
000002d0: 90c5 81bc a713 e93d c2b7 cf3c b1a1 dd3c
000002e0: fbaa f93c 4975 c23d 3764 cfbd 0ff2 02bc
000002f0: d722 063d 3244 d53c b3c0 393c 6e72 683d
00000300: 10cd 9dbc 6631 3abd 4407 643d 1caa 243d
00000310: 60c0 d0bd 6678 b0b9 a1ed e2bd c7a3 fabd
00000320: d384 94bd b033 3e3d 5af2 81bd 6c3c 44bc
00000330: 691b 6abd eb89 44bd 3110 f3bd 0a46 463d
00000340: e0b6 84bc 5424 7dbd b41c 7c3d 2f35 393d
00000350: f97d e6bc 29a7 473d 004f 253d d34c 90bd
00000360: a8df 8dba 6c64 a93d b768 e7bd 2051 423d
00000370: d0d2 663d b898 c2bc 1f1e d33b ea24 38bd
00000380: a3db 88bd 82df 9dbd d22b 84bd 77de b23d
00000390: 7a22 ee3d 5dd3 6b3d beb2 633d 6280 7d3c
000003a0: fc4e cb3c 1c7d d53c f569 c7bd 88ed ae3b
000003b0: 5400 c33c bd44 c53c ff56 12bc ecd9 febc
000003c0: 47cb 693b 431b e3bc 07dc 9ebd a632 d93b
000003d0: 50af 223c ec93 33bd 5e73 003e b9f9 4a3d
000003e0: 5034 a9bd 7088 f83c 06f8 f3bd 7d7c 15bc
000003f0: 73d3 12bd a03a 783d b023 e1bc a538 81bd
-0.01596047 -0.04463163 -0.00066943467 0.05300763 -0.008494496 -0.009340172 0.10335541 0.040500365
-0.0010393028 0.073915206 -0.15562846 -0.0018851757 0.123467356 0.023329437 -0.0023654017 -0.03421403
-0.023291925 -0.10400232 -0.01763383 -0.09329829 -0.063071094 -0.07091942 -2.3035602e-05 0.0029349758
0.04360137 0.032137446 -0.043807395 0.033975422 -0.058905803 0.015176313 0.042995937 0.020746684
0.024463005 0.06359067 -0.10613932 -0.08248957 0.04086128 -0.04155734 -0.10974501 0.0024942725
-0.074272 -0.07896068 -0.07505391 0.03401916 0.020282904 -0.026209854 -0.10088094 0.007953472
-0.03200005 -0.07629449 -0.021818273 -0.0031926706 -0.021153964 0.04820589 -0.029838162 0.02750833
0.0023526603 -0.03208293 -0.11918069 -0.018102346 -0.039781928 -0.032068346 -0.09095343 -0.05396519
-0.07559648 -0.053823195 0.084938996 -0.07599795 0.035099994 -0.033103853 -0.031305514 -0.10661331
-0.009063943 0.0028137863 -0.010567491 0.012450513 -0.078082465 -0.005467117 0.017014664 0.04171245
0.037738428 0.023346193 0.06565469 -0.014884856 0.05256121 -0.03638238 -0.0032706324 -0.05539022
-0.015617509 -0.10376595 -0.035768397 -0.059587542 -0.05934455 -0.119577214 0.034593016 -0.013845697
-0.098468706 0.011221377 0.057767328 -0.09459959 0.10470254 0.0009369552 -0.04585875 -0.10495711
0.050566528 -0.09511886 0.07085544 -0.039170347 -0.09923362 0.0020657107 0.039070617 0.05266311
0.057557404 -0.0660364 0.013823048 0.06771203 0.01859913 0.06733121 -0.06729723 -0.04939685
-0.054662865 0.00872567 -0.017908752 0.009722777 0.00895036 -0.02920315 0.075443715 -0.029265922
0.06620409 -0.01367424 0.04892032 0.009992246 0.10949378 0.030649796 0.058600165 -0.057158
0.014033257 -0.02209544 -0.041397292 -0.050417427 -0.07365528 0.03875494 0.0123665575 0.087233245
0.014221054 -0.11276022 -0.05241086 -0.011495954 0.088297054 0.025887676 -0.052145503 -0.058856793
0.029794212 0.077357985 -0.042697936 0.011178888 -0.051492684 -0.079715446 0.022947207 -0.06451716
0.030679815 -0.032919947 0.0028670132 -0.016891025 -0.035074085 0.014970951 -0.018699046 0.069155015
-0.06985762 0.044456936 -0.017708004 -0.049583543 -0.03623193 0.008704621 0.045139663 0.09846472
-0.0050904932 -0.054880418 -0.007873841 -0.009481996 -0.015841275 0.113807015 0.025356177 0.02705464
0.030477038 0.094950266 -0.10126536 -0.007992282 0.03274807 0.026033495 0.011337447 0.056749754
-0.01926282 -0.045457266 0.05567099 0.04020129 -0.101929426 -0.0003365904 -0.1108048 -0.12238269
-0.07251897 0.04643601 -0.06345053 -0.011977296 -0.057155047 -0.04798309 -0.11868323 0.04840664
-0.016200483 -0.061802223 0.06155081 0.045216735 -0.02813624 0.0487434 0.040358543 -0.07045903
-0.0010824101 0.08271107 -0.1129927 0.047440648 0.05635339 -0.023754463 0.0064427997 -0.04495708
-0.066825174 -0.07708646 -0.064536706 0.08733838 0.1162767 0.05757462 0.055590384 0.015472503
0.024817936 0.026060633 -0.097370066 0.0053383745 0.023803867 0.024080629 -0.008931874 -0.031109773
0.0035674141 -0.02772296 -0.07756811 0.006628352 0.009929493 -0.04384224 0.12544009 0.04955456
-0.08261931 0.030338496 -0.11912541 -0.009123919 -0.035846185 0.060602784 -0.027482837 -0.06309632

encoder_fc2_logvar.bias f4 [5]
00000000: 2ff5 7bbe 3781 adbd 3118 cebd 3d0c 59bd
00000010: 59f7 85be
-0.24605249 -0.084719114 -0.10063208 -0.052990187 -0.26165274

decoder_fc1.weight f4 [256, 5]
00000000: 1833 fcbb 376a adbd a585 503e c627 e7bc
00000010: 27f4 573e eaf7 4b3e 77be 46be 4b10 2ebe
00000020: 3c51 8a3d 7019 0f3d 1bc0 c2be 520d 25be
00000030: fa5f 54be 1ca0 dd3d 5010 73be 614e 7a3d
00000040: 827f 313e 9b6e 163d 4982 be3c 39ee 0d3f
00000050: 5c07 bf3d 1693 1f3e dbed 99be 851e 853a
00000060: ac02 1f3e 32e7 a6be 7ed4 3dbd e65d 60be
00000070: a2dd b4bb 787e 453a 4e87 28bd 06f2 38be
00000080: 4e84 e43d 90b7 873e ad29 3abf da92 ffbc
00000090: 472f fbbc 2b9d 99be 1485 093d d57e 5fbe
000000a0: 8029 e1be ca3e 53be 9c17 9cbe c772 88bc
000000b0: 6b1f fb3d 3287 763e 004c e03c dbc3 8dbd
000000c0: cac2 8fbd 9158 c0b9 faf4 3e3b 5a02 4b3d
000000d0: 265b 8abe 53c3 dc3d 9acd eb3e 0baf b4bb
000000e0: 64d8 303d ad91 ca3c 67c5 8abd 192c 183f
000000f0: f4b2 063b f440 8ebc a2cf 073b c748 f7bb
00000100: 1355 d5bf 8fdc 47be e96b b4be 40f2 463d
00000110: 0d0f 6a3e f08d 113f 2419 813e c303 cbbc
00000120: ec11 cbbd 3e33 4a3e 6c17 88bd 40cb 8abe
00000130: 8745 363d bd52 10be a249 56be ff26 c6be
00000140: 694b 4d3e cc8c 25bd f3ce da3d 2644 13be
00000150: 1ee6 e23d 5254 d1bd 3e96 4b3e fdcb 803e
00000160: 2355 dfbc 7c0c 80bd a7bc 89bc 85dc a13c
00000170: c911 e3bc 276b 13bc c29b 6cbf b04f bcbc
00000180: 0b6d 213b 6c7f 3bbc 862b 2dbc aae2 03c0
00000190: 6f57 33be 3d4e a43c d8af 91be 2102 a33c
000001a0: 6dfe f33d 6c48 8ebb 7634 693e 0aed 7bbe
000001b0: 5719 e6bd 6b2c eabe 5d6e 223e 3997 7cbe
000001c0: 2e91 abbe 9d6a 62be 19a0 183d 772c ba3e
000001d0: 2f39 02be 37ab 9a3e 9f92 883e f9b4 253e
000001e0: 87cd 713d 66a7 253e 59f6 7abe e828 d7bd
000001f0: 341f 4bbe ecfc bc3e 26c4 9cbd ad1e 863e
00000200: f00f eb3d f545 883e 756e 0cbe 5fde ac3d
00000210: 438f 8bbe ffaa f83d 6240 adbd f8fe d83b
00000220: 58e7 23be 486d d93c a69a 6dbe 555f b23b
00000230: b9a7 0bbe 0536 293e 42fa 9bbe 1e33 893e
00000240: 640c f83e cdd5 033e 4d49 44be b2a9 07be
00000250: 812c 9d3d 5d46 28be 3728 3cbb 62e0 fcba
00000260: f2e7 5f3b 8718 c4bb 325d 36bf c256 b63e
00000270: 092b 8bbd 3163 4b3e 3b36 823e 34cf 08bf
00000280: fc9d 743e 7c0a 593e 9e70 2b3e e4c2 85be
00000290: bc09 4e3e eb03 d0bc 6808 393d 2545 30bd
000002a0: a6c5 2a3d de79 983f 07ea 383e f092 213e
000002b0: f8ae 89be 83bd 9d3e 3670 833e cecb bc3e
000002c0: dc8e f93d 21be 223d 63bc 813e 7416 abbe
000002d0: 63fb 75bd baf8 41be 9568 873c ecac 013e
000002e0: 46a5 a1be 7740 d5bd a13a dabd ea38 553e
000002f0: bccf b33d 27bc a2bd 0716 9a3e 6b78 7b3e
00000300: fe55 563e 222b 30be af42 7dbe c053 573c
00000310: 1415 09bc 039e b1bb 3491 f63c e9b9 773f
00000320: 2362 713e 26c7 41be 394e b63d 55cb a33e
00000330: be58 8dbe 93eb 2bbe 0230 abbb e1e4 813d
00000340: cc8d 3fbe 9247 273f 8b36 0a3d 62a5 343e
00000350: e862 033d bc1e 723d 5ea2 e5bb e204 f6bc
00000360: 30fc 543e 4002 11bc e9b0 463c f845 4f3f
00000370: 62f6 453e 4e5c 0b3e 8f4e 80be 8fed d5bd
00000380: 2fba 82bc e7ff 753e 48aa 903e 1e37 97be
00000390: aa24 b53e 8bba 523e 223b a4be aa7a 283d
000003a0: 0c79 a6be 9415 7cbe 732e 83be 062d 0bbe
000003b0: 21ea 3cbe e514 68be 1793 893e 4eff 88be
000003c0: 3203 13bd 992b f93d 2f9c 4cbe 5569 523e
000003d0: cd77 d8be 405a 263e 77df 843e 705d 803e
000003e0: 6995 313e 7614 c9be 6ad8 e53d d5b8 a43d
000003f0: 9863 2cbe 7d34 223e 6957 75bf 87e4 7bbe
-0.0076965205 -0.084675245 0.20363481 -0.028217208 0.2108923 0.1991879 -0.19408594 -0.16998403
0.067537755 0.03493637 -0.3803719 -0.16118363 -0.20739737 0.10821554 -0.23736691 0.061109904
0.17333797 0.036726575 0.023255484 0.55441624 0.093275756 0.15583453 -0.30064282 0.001015619
0.15528363 -0.32598263 -0.046345226 -0.2191082 -0.0055195848 0.0007533799 -0.04114466 -0.18061075
0.111580476 0.26507235 -0.7271984 -0.031197954 -0.030662192 -0.30002722 0.03357418 -0.21825726
-0.43976974 -0.20629421 -0.30486763 -0.016656293 0.12261852 0.2407501 0.02737999 -0.06922122
-0.07019575 -0.0003668708 0.0029137717 0.04956279 -0.27022666 0.10779443 0.460553 -0.005514031
0.043175116 0.024727667 -0.06775933 0.5944229 0.0020553442 -0.017364956 0.0020723124 -0.0075465175
-1.6666588 -0.1951773 -0.3523858 0.04857087 0.22857304 0.56857204 0.25214493 -0.024782067
-0.09915528 0.1974611 -0.06645092 -0.27108192 0.0444999 -0.14094062 -0.20926526 -0.38701627
0.20048298 -0.040417477 0.10684004 -0.14381465 0.110790476 -0.10221161 0.19881532 0.2515563
-0.027262276 -0.06252381 -0.01681359 0.019758472 -0.027718442 -0.008997715 -0.9242517 -0.022987217
0.0024631645 -0.011443954 -0.010569459 -2.0607095 -0.17513822 0.020056838 -0.2845447 0.019898476
0.11913762 -0.0043421295 0.22773919 -0.24602142 -0.11235302 -0.45737013 0.15862413 -0.24667062
-0.335092 -0.22110982 0.037262056 0.3636205 -0.12717126 0.30208752 0.26674363 0.16182317
0.059033897 0.16177139 -0.24508037 -0.10505849 -0.19836122 0.36911714 -0.076546 0.2619528
0.11477649 0.26615873 -0.13714011 0.084408514 -0.27257738 0.1214199 -0.08459546 0.0066221915
-0.1600622 0.026541367 -0.23203525 0.0054434934 -0.136382 0.16524513 -0.3046437 0.26796812
0.48446953 0.12874527 -0.19168587 -0.13248327 0.07674504 -0.16433091 -0.0028710493 -0.0019292946
0.003416535 -0.005984369 -0.71235955 0.35613066 -0.06795318 0.19862057 0.25432 -0.53441167
0.23888391 0.21195406 0.16742179 -0.26125252 0.20120901 -0.025392493 0.045174032 -0.04303469
0.0416924 1.1912191 0.18058024 0.15778708 -0.26891303 0.30808648 0.25671548 0.3687424
0.121854514 0.039732102 0.2533904 -0.33415568 -0.060054194 -0.18942538 0.01652936 0.1266362
-0.31571406 -0.10412686 -0.10655714 0.20822492 0.087798566 -0.079460435 0.3009493 0.24557655
0.20931241 -0.17203954 -0.24732469 0.013142526 -0.008366842 -0.005420448 0.030098535 0.9676805
0.23572592 -0.18923625 0.089016385 0.31991068 -0.27606767 -0.16789083 -0.005224229 0.06342483
-0.18706435 0.6534358 0.033743422 0.17641214 0.032076746 0.05911134 -0.007007881 -0.030031625
0.20799327 -0.008850634 0.01212714 0.8096614 0.19332269 0.1360943 -0.25059935 -0.10445701
-0.01595792 0.240234 0.28254914 -0.2953424 0.35379535 0.20578973 -0.32076365 0.041132607
-0.32514226 -0.24617606 -0.25621375 -0.13591394 -0.18448688 -0.2266422 0.26870033 -0.26757282
-0.03589172 0.12166519 -0.19981454 0.20547993 -0.422789 0.16245365 0.2595174 0.25071287
0.17342152 -0.39273423 0.11222918 0.080430664 -0.16834867 0.15840335 -0.958365 -0.24598895

decoder_fc1.bias f4 [256]
00000000: d25e 26be 42c4 ab3e 794c 7e3e 79da b3bc
00000010: 8836 8dbe 76bb 09be b29f 7d3e d167 e63d
00000020: 84bb a1be 265b f63e 1c84 7c3e c39d 1ebf
00000030: 81c4 223f 7f59 df3e a93e 2b3e 4d5c cb3e
00000040: 7d41 033f 4b31 ad3e 39e4 bb3e 5d61 583e
00000050: 391e 9b3e 7622 13bd f513 04bf be3b 0b3f
00000060: 36c9 96bd bffd bc3e b60c 18bf a7c3 07bf
00000070: a627 0bbe 84e3 ae3e e4b9 a8bf 0a5a 673c
00000080: de45 da3e 4c73 96bf b474 0b3f 654e cc3d
00000090: fb17 963e 0c13 3cbf 9e27 d03d 1a8a a93e
000000a0: d9f3 cfbe f8dc 8bbc 8980 0cbf 3b63 d2bd
000000b0: 6c9d 19bf 9f89 0dbf 345d cabe b97f ebbe
000000c0: f4de 1b3d e953 a0be 989c 1ebd 000f 66bd
000000d0: 3ce3 b43e b0ff ed3e 072a 7a3e 3039 113e
000000e0: ee27 c3be 2ece 09c0 756f c73a f5a8 86be
000000f0: 01c3 d2be 746a b03e bc42 843e c1e8 4cbe
00000100: 0b4d a83e 1e87 eebd 7e37 823e 321e 643e
00000110: 4ce9 963e 5a3d df3e d6c4 013d 17c0 babf
00000120: 1558 e2be 58cb 85bf 45f8 05be 8bca 14bf
00000130: 2a8d e9be 65a7 0cbe e348 083d dc73 e9be
00000140: 7991 a6be 7c5b 57be 80d5 a03e cb2f 143e
00000150: b0cf 3e3e a924 f53e e239 133d 6256 99be
00000160: 0d92 23bf 9606 063f 0b5c 06bf dade 0a3e
00000170: b88b 3fbf 4d5c d03e 573c a2be d6c4 03bf
00000180: d34e 94be a81c 62bf e00a 22be 13e0 833d
00000190: a6f7 e1bd de84 183e 6418 01be 8a37 593e
000001a0: 00f7 aa3e 8b20 a83e bacb 1ebf 138f a13d
000001b0: 897c dc3d 52db 1bbf 629e 81be 9e33 13bf
000001c0: 7d3b 29be 616e 023e 3a28 e43d 801d 0ebf
000001d0: 10f7 053f 269f 60be 6f74 eabd 8a00 a0be
000001e0: 31ae ecbe 421d 34bf 0cf4 c3bd 73f8 ce3e
000001f0: d6a9 493e d487 51be b027 d23e 00ce 24bf
00000200: 046a a33e 0185 253d 4eb8 a73d c8d8 213f
00000210: af65 d33d 992e 38bc 343b 763c a629 c0be
00000220: 5e68 a93e 65b1 d8bc e4b6 17be 605c e7bf
00000230: 148f 54be f426 b5be 49df 8dbe cca5 d63e
00000240: b217 173f 7579 6bbf be53 4dbe 2fdf 5abe
00000250: b13f 5abf e019 9c3e c3ea a73e bff2 25bf
00000260: 290e 803e 120c e2be 4079 b13e f3e7 9cbe
00000270: 1165 39be e751 dabe 8129 923d a02b 363d
00000280: 6e41 5abd 4bdc 36be 7e30 36be 35a2 d4be
00000290: ba9b ad3e 7c45 9fbe 8b64 96be 4f4c de3d
000002a0: b18e 47be df80 933e a7e8 f83d 2a34 bbbe
000002b0: 187a 91be f39b b5bf f15f 183f 4c78 48bf
000002c0: 56fc c0bc a35e acbe 157c abbe 0d0f c8be
000002d0: 77a2 d33e c932 343f f3d9 723e a3cc 12bf
000002e0: 868d 8bbf f457 f7be 4d8f 8c3e 6310 cbbe
000002f0: 1e88 793e 2c4e 4fbf a203 e5be 64bc c9bd
00000300: 4a83 37bd 78be 69bf 4d0f 94be 63cb 08bf
00000310: 0cdc f4be 7173 58be dedf 73be d3d7 7abe
00000320: aa6e b33e e089 d3be 3af7 233e afba 21bf
00000330: 0a38 25be f35c 1a3f 1f79 a33d c329 193e
00000340: 8daa 213e d682 a6be 7e0f e3be da43 bebd
00000350: b4ab 333e 388b 643e 5854 e2be c078 8c3e
00000360: 53b4 10bf fc85 bfbe 7007 25be 69c7 b7be
00000370: b135 56be 286d 4e3e afcb 3f3f 27cf 61bb
00000380: 80b9 a63e c359 fbbe 437f 953e c02d 7abe
00000390: 2f95 0ebd 0f0e efbf ccee 86be da42 2c3e
000003a0: f9dd 0c3e 3f1c d73d 4a69 79bf bfa7 9d3e
000003b0: e591 7ebf 6ed5 6d3e 1090 1b3e 2709 be3e
000003c0: 9596 d8be 2552 c0be 1993 dc3e 2574 1d3e
000003d0: 5943 8e3b c40e 2fbe 2e40 d9bd 2828 403e
000003e0: a07f 47bc 6f84 d0bf d509 1f3e 6ed5 423d
000003f0: bb8e 983e bf93 e4be c6b6 26bf 1e46 adbe
-0.16247109 0.3354817 0.2483386 -0.021954762 -0.27580667 -0.13450417 0.2476795 0.1125027
-0.31588376 0.48116416 0.2465977 -0.61959475 0.6358109 0.43622968 0.16723122 0.39718857
0.512718 0.3382667 0.36697558 0.21130891 0.30296496 -0.035921536 -0.5159295 0.54388034
-0.07362597 0.36912343 -0.59394395 -0.53032917 -0.13589343 0.34157956 -1.3181729 0.014120588
0.4263143 -1.1753936 0.5447495 0.0997589 0.2931517 -0.73466563 0.101638064 0.33113176
-0.40615728 -0.01707314 -0.5488363 -0.10272833 -0.6000583 -0.5528812 -0.39524233 -0.45995882
0.03805442 -0.31314018 -0.03872356 -0.05616665 0.35329616 0.46484137 0.24430095 0.14181972
-0.381164 -2.1532092 0.0015215712 -0.2630078 -0.411644 0.34456217 0.25832164 -0.20010664
0.3287128 -0.11646865 0.25432962 0.22277144 0.29474866 0.43601495 0.031681858 -1.4589871
-0.44207826 -1.045268 -0.13082989 -0.58121556 -0.45615512 -0.13735731 0.033272635 -0.45596206
-0.32532862 -0.21030992 0.31412888 0.14471357 0.18633914 0.47879532 0.035943873 -0.29948717
-0.6389473 0.523538 -0.52484196 0.13561574 -0.7482257 0.4069542 -0.3168666 -0.5147222
-0.28966388 -0.88324976 -0.15824461 0.06439223 -0.11033563 0.14894435 -0.1260696 0.21212593
0.3339157 0.32837328 -0.6202961 0.07888617 0.10765941 -0.6088153 -0.2531615 -0.57500637
-0.16526599 0.12737419 0.11140485 -0.55513763 0.5233011 -0.2193571 -0.11447989 -0.3125041
-0.46226647 -0.70357144 -0.095680326 0.40423927 0.19693694 -0.2046197 0.41045904 -0.6437683
0.3191682 0.040410046 0.0818945 0.63221407 0.10322129 -0.0112415785 0.015028764 -0.37531775
0.33087438 -0.026451776 -0.14815861 -1.8075066 -0.20757705 -0.3538128 -0.27709416 0.41923368
0.5902053 -0.91982204 -0.20051476 -0.213742 -0.85253435 0.3048849 0.32796296 -0.64823526
0.25010803 -0.44149834 0.3466282 -0.30645713 -0.1810496 -0.42640612 0.071368225 0.044475198
-0.053285055 -0.17857473 -0.17791936 -0.41530004 0.33907872 -0.311077 -0.29373583 0.108543985
-0.19488026 0.28809258 0.1215375 -0.36563236 -0.28413463 -1.4188217 0.59521395 -0.7830856
-0.023557823 -0.33665952 -0.33493105 -0.39073983 0.41334888 0.7038999 0.23715954 -0.573435
-1.0902565 -0.4830929 0.2745308 -0.3966094 0.24368331 -0.80978656 -0.44729334 -0.09850386
-0.04480294 -0.9130626 -0.28917924 -0.53435344 -0.47824132 -0.21137787 -0.23815867 -0.24496393
0.35045367 -0.41316128 0.16012278 -0.6317548 -0.16134658 0.6029808 0.079820864 0.14957337
0.15787716 -0.32521695 -0.44347757 -0.092902854 0.17545968 0.22318733 -0.44204974 0.27435875
-0.5652515 -0.3740691 -0.16116118 -0.35894325 -0.20918919 0.20158827 0.7492017 -0.0034455748
0.325634 -0.4909192 0.29198655 -0.24431515 -0.03481024 -1.8676165 -0.26354063 0.16822377
0.13756551 0.105034344 -0.97426283 0.30792043 -0.9944137 0.23225948 0.15191674 0.37116358
-0.42302385 -0.3756267 0.43080977 0.15376337 0.0043415246 -0.17095476 -0.106079444 0.18765318
-0.012176424 -1.6290416 0.15531094 0.047566824 0.29796395 -0.4464397 -0.6512264 -0.33842558

decoder_fc2.weight f4 [400, 256]
00000000: fef0 0abe e645 fdbc a72d ec3d e4f7 a4bd
00000010: 6e8e 763b 0dd1 123e 5990 053c 62fa f6bb
00000020: f8a3 863d 7f34 ccbd 9eb0 27be f124 3dbd
00000030: 27ef 3dbe a861 fabd efe6 c3bc f155 ce3c
00000040: 078b d7bd 1930 42bd 19c1 a3bd d02e 72be
00000050: 3e59 44bd 7a42 fc3d 0a58 a93c 4067 3fbd
00000060: d499 053d 2c92 8dbd 6e4e 8abd dd86 e43c
00000070: e883 20be 16ed 09bd 9a65 2bbd ed29 6abd
00000080: 8c8a 27bd 54e7 afbd 9661 c5bd 87af af39
00000090: 598e 1fbc b6f5 88bd 09c0 c5bd 74d0 41bf
000000a0: c1f6 853e 7442 40be 8f11 54bc fdea 0bbe
000000b0: 513a 883d eaa9 ddbb 8000 1b3e 15ca 123d
000000c0: 55e5 bfbd ffa3 bfbd 1a80 94bd 5f4a d6bc
000000d0: b420 d5bd 0d2f 0cbe d2bb c0bd 1aa4 f5bd
000000e0: 4f1e b3bc 09a0 3e3d 4557 ea3d 8c52 3bbd
000000f0: 163d 7ebe df43 71bd 8397 1ebd 4c3b 85be
00000100: d43b 96bd ee52 743e 77c6 4bbc 0afd 8cbd
00000110: 1988 cdbd 486e 3ebe 3bef 6b3c 003d 533e
00000120: c266 8bbd b104 e33e 85c6 adbd db50 0e3d
00000130: 33e2 343d c815 90bb 5aa6 80bd 713e 233e
00000140: 5d4f a3bd b51d 20bd 495d 24bd 97d8 65be
00000150: 6d39 6b3a fee3 8bbd 80bd 05be 4cc2 f5be
00000160: de2a 94be d7ae 8e3d 589b 3fbd f114 68bc
00000170: 3504 96bd 6dda 0ebe ceb0 86b8 cb20 15bc
00000180: a4e8 40bd fd26 7fbd 0dae 52bc 301d 073d
00000190: d3ad a5bd dbfd debd 923e 81bd b7a8 78bd
000001a0: d4a5 893a 24d1 113d 9d24 18be 7af6 fa3d
000001b0: 2702 46b8 edae 99bd cde8 85bd eabb 35bd
000001c0: a4cc c9bd 17a4 c8bd 2b87 e13d 4530 bebc
000001d0: e74c 3dbe 8fb2 053d e7bb 233e c887 143d
000001e0: 1efc 1bbd 1799 46bd 2e08 ad3c 3402 923d
000001f0: 8f44 f1bc 09aa d3bd 0b28 1dbe 0c5a 27bd
00000200: 6c0b 24be 1b6f 883d f610 99bd 0c24 ffbd
00000210: d0e1 2cbd 468b 37bc 3417 98bd 334a 7d3d
00000220: ff77 e2bd fa8a 40be 83cf 53bd 756d adbe
00000230: e945 143d 8444 a2bd e44f d93d 32a0 85bc
00000240: cc6a 48be 1285 3f3e 6df2 0ebd 01d9 0a3e
00000250: c42a 2b3e a14b b0bc e527 4bbc 54b2 d3bc
00000260: e46c 16be 0ded 77bc 8017 45bd f159 07bf
00000270: 051a bfbd ae7f 6d3d 4724 a43d 8156 f2bc
00000280: f0b9 57bd 9bd5 6dbd 75e9 f938 22d9 9ebd
00000290: 9e21 e3bd c6e3 bfbd ef0b f3bc 513b e2bd
000002a0: 90e9 3fbe 5549 afbd f083 e1bd 7300 433e
000002b0: 7bfe 96bd a609 393f 5f5f b43c a43f f6bd
000002c0: b3dd 97bd ede5 193e 3416 033e 742f 923c
000002d0: bec6 0d3d 6aec c4bd f815 5bbd 6494 c1bc
000002e0: c486 9cbd 024f c33d ea40 3bbd 5273 77bd
000002f0: 7259 27bc 90f1 ae3e df81 82be c332 b33c
00000300: 7926 8fbd 6985 b6bc b8a1 d3bd 5220 58bb
00000310: 56ea 733c b181 043d 318a 26bd 1f4b de3d
00000320: 4fd5 8cbd 9ef2 11be 0cfe a8bd b393 4ebd
00000330: c3d2 e03c a063 3cbe 9716 abbc c31e 583d
00000340: ff55 8fbc c481 f13c a689 953d 04af e73d
00000350: 6a47 27bd 8b5d 01bc 192d 50bd 4b05 11bc
00000360: b74d aabd ca89 043e eb5b 1f3e f225 233e
00000370: ffee e1bd 6b48 8bbe 1fd9 cbbd 1527 253c
00000380: 35be aabd 6d48 533d 5204 3e3d 2d65 41bd
00000390: 366b 2dbd 6407 17be 1e3c 0dbe bb8d d63d
000003a0: a0bb 1f3d 8cc9 493d cd1e 79bd e786 8cbc
000003b0: f907 dfbd 004b aebd c87c dd3c e2bc 94bd
000003c0: fdc4 233b 99aa dabc 59dd 45be 94b6 743b
000003d0: 7d38 c33c c9e3 8cbd d625 b6bc 2679 c1ba
000003e0: c52d ddbe 6e10 17bf 15cc 003e a492 f2bd
000003f0: eafc babd 33aa 1c3e 1524 603e b91c c3bc
-0.13568494 -0.03091712 0.11532145 -0.08055094 0.0037621516 0.14337559 0.008152091 -0.007537172
0.06574243 -0.0997095 -0.16375968 -0.04617781 -0.1854826 -0.12225658 -0.023913829 0.025187464
-0.10524564 -0.04740915 -0.07995815 -0.2365067 -0.04793667 0.12317367 0.020671863 -0.046729326
0.032617405 -0.06912646 -0.067532405 0.02789634 -0.15675318 -0.03367337 -0.04184494 -0.05716889
-0.040903613 -0.08589044 -0.09637754 0.0003350938 -0.009738528 -0.06687491 -0.096557684 -0.757087
0.2616482 -0.1877535 -0.012943639 -0.1366386 0.06651748 -0.00676464 0.1513691 0.03583725
-0.093699135 -0.09357452 -0.07250996 -0.02615851 -0.10406628 -0.13689823 -0.09410824 -0.119941905
-0.021865038 0.04653934 0.114424266 -0.04573302 -0.2482799 -0.058902618 -0.03871871 -0.26021802
-0.0733563 0.2385976 -0.012437454 -0.06884201 -0.10035724 -0.18596756 0.014400299 0.20628738
-0.06806709 0.44339517 -0.0848513 0.03474508 0.044161033 -0.004397128 -0.06281729 0.15941788
-0.07974122 -0.03909083 -0.040128026 -0.22445904 0.00089730957 -0.068305954 -0.1306057 -0.479998
-0.28938955 0.06966942 -0.046779007 -0.014165149 -0.07325021 -0.1395051 -6.42255e-05 -0.009102057
-0.047096863 -0.06229304 -0.01285888 0.03298682 -0.08089795 -0.10888263 -0.063107625 -0.060707774
0.0010501691 0.035599843 -0.14857717 0.12254043 -4.7208883e-05 -0.075040676 -0.06538544 -0.044368662
-0.09853485 -0.09796923 0.11012109 -0.023216376 -0.18486367 0.03264099 0.15989648 0.036262304
-0.038082235 -0.04848584 0.021122064 0.071293265 -0.029451637 -0.10335166 -0.15347306 -0.04085736
-0.16019982 0.06661817 -0.07473938 -0.12458047 -0.04220754 -0.011202639 -0.07426301 0.06183834
-0.11058044 -0.18803015 -0.05171157 -0.33872572 0.036199484 -0.079232246 0.10610941 -0.016311739
-0.1957199 0.18703106 -0.034899164 0.13559343 0.16715533 -0.021520438 -0.012399648 -0.02584187
-0.14689976 -0.015132201 -0.048118114 -0.52871615 -0.09331135 0.057983093 0.08014732 -0.029582264
-0.05266756 -0.05806504 0.0001191673 -0.077562585 -0.11090396 -0.09369616 -0.029668776 -0.1104647
-0.18741441 -0.08558909 -0.11011493 0.1904314 -0.07372757 0.7228035 0.022018133 -0.12023857
-0.07415333 0.15029116 0.12801439 0.017844893 0.034613363 -0.09615405 -0.053487748 -0.023630328
-0.07642892 0.09536554 -0.045716204 -0.060412712 -0.0102141965 0.34168673 -0.2548971 0.021874791
-0.0698976 -0.022280412 -0.1033358 -0.0032978249 0.014887413 0.032350246 -0.040659133 0.10854172
-0.06876623 -0.14252707 -0.082515806 -0.050433826 0.027444249 -0.18397379 -0.020884795 0.05276371
-0.01749706 0.029480822 0.07301645 0.113126785 -0.04083959 -0.007895838 -0.05082426 -0.00885136
-0.08315604 0.12943187 0.15562408 0.15932444 -0.11031913 -0.27203688 -0.09953522 0.010080119
-0.0833706 0.051582742 0.04639084 -0.04721563 -0.042338572 -0.14748913 -0.13792464 0.10476252
0.038997293 0.049264476 -0.06082039 -0.01715417 -0.108901925 -0.08510399 0.02703704 -0.07262589
0.002498924 -0.026692675 -0.19322719 0.003734027 0.023830647 -0.06879384 -0.022234838 -0.0014760836
-0.43198982 -0.59009445 0.12577851 -0.11844376 -0.09130271 0.15299301 0.21888764 -0.023817407
